Assets/Brains/flAppy-bIrd.onnx (onnx, 273578 bytes, 6 tensors)

action_model._discrete_distribution.branches.0.bias f4 [2]
000000 c0 5c d2 3b c0 5c d2 bb
       0.006419748 -0.006419748

action_model._discrete_distribution.branches.0.weight f4 [2, 256]
000000 9e a5 8a 3c b5 56 eb 3b b5 16 40 bd d1 e2 c1 3c
       0.016924676 0.007181967 -0.046896655 0.023667725
000010 53 16 f0 bc 5b eb 5c bc 61 19 54 3d 23 67 c3 3c
       -0.02930752 -0.0134838475 0.051782016 0.02385289
000020 e3 22 79 3d e7 a7 01 3d eb 70 32 3d e1 eb 0f 3d
       0.060824286 0.031654265 0.04356472 0.03513706
000030 3e cb 59 bd 1f f5 56 bc c0 be 6f 3c bb 6c be bc
       -0.053172342 -0.013119965 0.014632881 -0.023245206
000040 79 ea d6 bc 61 e2 ca 3c fc 6c 08 bd 6e ba 5a 3d
       -0.026234852 0.024766149 -0.03330706 0.05340045
000050 27 be dd bc cc 50 a7 3c c3 a5 98 3c 74 65 80 3b
       -0.02706821 0.02042427 0.018633729 0.003918344
000060 24 e4 7e 3a 15 77 39 bc e5 87 4a bc 45 1d 23 bd
       0.00097233267 -0.011319895 -0.012361501 -0.039822835
000070 5d 99 e0 3b be b4 e4 ba e2 16 f1 bc 72 7e f1 3c
       0.00685422 -0.0017448885 -0.029429857 0.02947924
000080 bf dc 6c 3d c3 6e 74 bc ea 91 8c 3c cf d0 38 3d
       0.057827707 -0.014918986 0.017159421 0.04512101
000090 9f ef bf bc ae 93 a3 bb 05 d4 44 bc 25 40 bb bc
       -0.02342969 -0.00499197 -0.01201344 -0.022857735
0000a0 c6 7a 1c bd e4 7c 2c bb 04 52 0a bd 55 cb f5 bc
       -0.038203023 -0.0026319558 -0.033769622 -0.030004183
0000b0 25 88 af bc 42 6d b0 bc 0d 25 55 3b 23 22 37 bd
       -0.021427223 -0.021536473 0.0032523305 -0.04471029
0000c0 76 2d 72 bc 07 e0 45 bc 9c c4 e8 bc e4 15 63 3c
       -0.014781347 -0.012077338 -0.028414063 0.0138602
0000d0 22 3a 83 3d b5 09 64 bc 62 f1 bf bc cd 9f 01 3d
       0.06407572 -0.01391833 -0.02343053 0.03164654
0000e0 3c 82 ce bc 8c 60 e6 bc ac e7 c3 bc 17 98 df 3b
       -0.025208585 -0.028122209 -0.02391418 0.0068235504
0000f0 29 80 bc bc 12 81 49 bd 81 c7 9e 3d 42 95 ca bc
       -0.02301033 -0.049195357 0.07752896 -0.024729375
000100 2b c3 73 3d ab 65 1d bd 89 af 95 3c eb 3c 27 bc
       0.0595123 -0.038427036 0.018272178 -0.010207395
000110 35 df be 3c 10 c7 97 3d 53 6b f9 3c bb 10 e2 bc
       0.023299793 0.07411015 0.030446684 -0.027595868
000120 41 20 26 bd 74 93 3c bd 4b 99 2f 3d 76 da 35 3d
       -0.040558103 -0.04603906 0.0428708 0.044397794
000130 43 3c 9c bc 9b 0b c5 3c 32 d0 cc 3c ce c4 62 39
       -0.019071704 0.024053385 0.025001619 0.00021626355
000140 ed 7b 02 3d 43 a2 63 bd ee e6 4a 3d d9 ad 38 3d
       0.031856466 -0.055574667 0.049536638 0.04508767
000150 8d 5a f7 bc 8e fc ec bb 40 0d d9 3b 82 89 c0 3b
       -0.030194545 -0.0072322553 0.006623894 0.005875767
000160 2a a1 9a 3c 99 f8 21 3c a9 03 d1 3c c8 6e de 3c
       0.018875677 0.00988593 0.02551444 0.027152434
000170 a3 4e 54 3d 7e d7 b2 3c 49 dd 4e 3d 53 7c a0 bc
       0.051832806 0.02183127 0.050504003 -0.019590532
000180 3a 44 e1 3c 74 80 c4 3d be ad e0 3c e2 33 a2 3c
       0.027498353 0.09594813 0.027426597 0.01980013
000190 3d e4 d3 3c 59 19 fd bc 41 79 80 bb f2 9c 47 bc
       0.025865668 -0.030895876 -0.0039207046 -0.012183415
0001a0 8d 7e 7c bc da 3e 1f bd 7c 45 10 bd 28 77 1c bd
       -0.015411031 -0.0388783 -0.035222515 -0.038199574
0001b0 82 c4 f1 3b 80 ce 09 bd 63 2a 47 3d 46 42 e9 bc
       0.007378162 -0.0336442 0.048624408 -0.028473984
0001c0 4d 22 7e bc c8 c1 6c bc a8 66 cd bc 6f 01 8c bc
       -0.015511108 -0.014450498 -0.025073364 -0.017090527
0001d0 38 28 88 bc f5 e4 8e bc 49 5b a5 bc 61 de e2 3c
       -0.01662074 -0.01744316 -0.02018513 0.02769393
0001e0 a9 15 e0 3c 25 83 14 3d 9e 73 73 bc 6e 57 00 bd
       0.027354078 0.03625788 -0.014859108 -0.03133338
0001f0 a4 df 8e 3d 92 6b 27 bd 24 5e 16 3c d1 f9 4b 3d
       0.0697625 -0.04087407 0.009177718 0.04979879
000200 6f 16 fd bc 8c 75 c2 3c e7 0d 9a 3d 8e b2 c7 3b
       -0.030894486 0.023737691 0.07522183 0.0060942834
000210 c6 7d 99 3d 11 1e 7b 3d f1 ba e1 bc d7 a5 95 bc
       0.074946925 0.06130797 -0.02755496 -0.018267555
000220 e9 f1 c0 3c 6e 5c 9b 3c 5b 3b 76 bb 9a 54 d8 3c
       0.023552852 0.018964972 -0.0037572 0.026407529
000230 8c 18 c0 bc 72 2c f9 3c e2 fa e1 bc 83 41 43 3d
       -0.023449205 0.030416701 -0.02758545 0.0476699
000240 66 2b 13 bd 7f 56 1f bd cc d0 35 bd 9c c3 e8 3c
       -0.03593006 -0.03890085 -0.044388577 0.028413586
000250 36 36 77 3d 12 82 f2 3c 87 72 90 bc 56 62 bc bc
       0.060354434 0.029603038 -0.017632736 -0.022996109
000260 8d 82 28 3c 28 3b c2 3c c8 e0 25 3c 92 ec e7 bc
       0.010285032 0.023709849 0.010124393 -0.028311048
000270 87 d3 b7 b9 1b c8 2c 3d c3 37 0c 3c 03 20 82 3b
       -0.0003506208 0.042183023 0.0085582165 0.0039711013
000280 9b dd 83 3d 87 66 25 bd 3d c5 81 3d 50 66 4d bc
       0.06438752 -0.04038098 0.06336448 -0.0125366
000290 14 02 21 3d 2f 7b 41 3d ab a4 9e bc 30 e8 d5 bc
       0.039308622 0.047236618 -0.01936563 -0.026111692
0002a0 a0 f0 40 3d d3 58 53 3b d7 6a b3 bc 58 9d 4d 3d
       0.047104478 0.0032248988 -0.021901531 0.050198883
0002b0 13 a4 a4 3c 1d e7 87 bc 03 58 40 3d 89 e3 20 bc
       0.020097768 -0.016589696 0.046958935 -0.009819874
0002c0 b2 e8 98 3d 59 8a 87 bc 37 28 d2 3c 1e ed 62 3d
       0.07466258 -0.016545461 0.025653942 0.055401914
0002d0 db 27 ca bc 43 9a 89 3c 6d 97 82 bc 5d fb f3 bc
       -0.024677208 0.01679719 -0.015941346 -0.029782945
0002e0 d7 82 61 3d 0c 5a 04 3d 3d f9 54 bc 09 03 ce 3c
       0.05505642 0.032312438 -0.012998876 0.025147932
0002f0 8d fb bf bb 7a df 54 bb a2 24 b0 3c 1f 8a ed bc
       -0.0058588446 -0.0032481835 0.021501843 -0.028996525
000300 e9 45 e3 3c 12 85 db 3c 0b ab 04 bd e2 bb 10 bd
       0.027743297 0.026796851 -0.03238968 -0.03533543
000310 9a 7f 9d 3c 97 8f 03 bd e4 67 16 3c c5 de 9d 3c
       0.019225884 -0.03211936 0.009180043 0.019271264
000320 eb 80 1b 3d 04 6d b1 bb 5f 25 4d bd 13 46 b7 bc
       0.037964743 -0.005414607 -0.050084468 -0.022372281
000330 79 8b be bb 0d 1d b2 3d 1b eb 29 3d e7 bc d3 3c
       -0.0058149663 0.08696947 0.04148398 0.025846912
000340 bd 36 24 bc d0 c3 62 3d 99 80 ce bc aa 45 19 3d
       -0.010022816 0.055362523 -0.025207805 0.037419952
000350 1c f2 3d bc 66 cd 32 bd ed d0 37 3d 92 c6 13 bd
       -0.011593368 -0.043652914 0.04487698 -0.036078043
000360 a1 4c 9a bc d7 c3 1f bd a3 02 39 bd 0c 0a 0b 3d
       -0.018835368 -0.039005127 -0.04516853 0.03394513
000370 27 69 9f bc 99 ca cb 3c 0d 9d 9d 3c b6 43 4f 3c
       -0.01945932 0.02487688 0.019239927 0.012650421
000380 f1 27 2d 3d 1b 48 03 3c 23 8e de 3c 90 e3 02 3d
       0.04227442 0.008012797 0.027167385 0.0319553
000390 45 d4 84 3d 54 61 bf 3c d2 22 9f bc 6c 7d b7 3c
       0.064858 0.02336184 -0.019425783 0.022398673
0003a0 c0 b1 27 bc ca c9 b1 bc e1 c9 cf 3c c9 bd 71 bd
       -0.01023525 -0.021702666 0.025364818 -0.059018884
0003b0 42 e2 00 bd 17 1c 0e 3d 6a 72 46 3c 24 8a 36 3d
       -0.031465776 0.034694757 0.012112239 0.044565335
0003c0 3f b4 f5 3c 40 5e 8e 3c af 16 a1 bc 7c 64 b3 bc
       0.029993175 0.017378926 -0.019664137 -0.0218985
0003d0 d3 c0 90 3c 8f af ed bc a9 ea 14 bd 0f 1b 22 3c
       0.01767007 -0.029014377 -0.036356602 0.009894147
0003e0 dd 85 5a bc b9 a4 c2 3b 9f 3a 8a bc 75 b0 83 3c
       -0.01333758 0.0059400466 -0.016873656 0.016075352
0003f0 f4 dd 90 bd f1 09 ae bc 10 f3 a0 3c 57 f8 0e bd
       -0.07073584 -0.021244975 0.019647151 -0.034904804

network_body.linear_encoder.seq_layers.0.bias f4 [256]
000000 b2 45 7a 3a c2 5a be 3c 68 6a 05 bc 56 b5 07 3b
       0.00095471286 0.023236636 -0.008143045 0.002070745
000010 23 82 1c bb 37 af 04 bc 36 80 07 3b e9 77 89 3c
       -0.0023881278 -0.008098415 0.0020675785 0.01678081
000020 18 ff 8b 3d c4 4d 36 3a a6 c6 e2 3c 4b c3 a3 bb
       0.06835765 0.0006954337 0.027682614 -0.004997646
000030 6b 02 23 3c c2 af 22 bc 48 0f 80 3b 9b 19 d3 3c
       0.009949307 -0.009929599 0.0039080717 0.025769046
000040 51 96 fb 3c 26 38 e4 3c d0 54 cd 3c 23 6f 00 3c
       0.030711325 0.027858805 0.025064856 0.007838997
000050 d0 73 8f 3c 7b 77 0c 3d 63 49 14 3c 48 1e ca 3c
       0.017511278 0.034293633 0.0090507 0.024672642
000060 22 b6 f7 bb fc ea 36 3c 0f eb 1d 3c b4 e6 83 3b
       -0.0075595537 0.011164423 0.009638562 0.0040253047
000070 2d e3 89 3b f7 4d f9 bb a4 90 74 bc ca 65 95 3d
       0.0042079897 -0.007608171 -0.014927063 0.07294805
000080 a4 71 c6 3b dd 6a 3a 3d de 06 c8 3c 5b 05 51 bb
       0.0060560275 0.04551207 0.024417337 -0.0031894061
000090 4e 68 a5 3c c4 3f 13 3c ab f4 00 3d 8c 88 27 3c
       0.020191338 0.008987371 0.031483334 0.010225426
0000a0 69 c0 bc bb 44 0e 90 3b f5 a6 36 3c c1 4b 11 3d
       -0.0057602418 0.004396232 0.011148204 0.035472635
0000b0 f7 a0 05 3c b0 f3 50 3c ae b5 91 3d c8 d6 29 bc
       0.008156053 0.012753412 0.07114731 -0.010366149
0000c0 55 89 cb bb 0e 20 ae 3a a3 ce be ba 7f ee 8d bc
       -0.0062114396 0.00132847 -0.0014557432 -0.017325638
0000d0 7f 4d cf 3b d9 d5 fb bb 11 5e 32 3d 34 37 96 3b
       0.006326377 -0.0076854047 0.04354674 0.0045842174
0000e0 da 0c 2f bc 95 a0 97 bc 29 7a 92 3c 5c 11 c1 3c
       -0.010684216 -0.018509189 0.017880516 0.023567848
0000f0 d2 f5 a9 3c 38 0b 64 3d f3 e3 91 3b 44 c3 02 3b
       0.0207471 0.05567476 0.0044522225 0.0019952813
000100 72 aa d0 3c 21 6c 4a 3c 77 7c 6a 3c 3e b3 0a 3c
       0.0254719 0.0123548815 0.014311901 0.008465586
000110 9c 2e 3a 3d 72 6e 82 3c be 50 60 b9 35 49 c4 3a
       0.045454606 0.015921805 -0.00021392383 0.0014975431
000120 00 06 3b bc 47 57 1d 3d 64 66 fe 3c 47 0d 81 bc
       -0.011415005 0.038413312 0.031054683 -0.015753401
000130 9e 76 9e 3c 2d 0d 4f 3b 70 23 c1 3b 07 de 26 3d
       0.01934367 0.0031593547 0.005894117 0.040739086
000140 85 2c 31 bd ef a7 ee 3b 25 0c 14 3d 28 2f b4 3c
       -0.043255348 0.007283203 0.036144394 0.021995142
000150 49 af ca 3b e2 55 5e bc b5 f7 a8 3b c9 d5 cd 3c
       0.0061854464 -0.013570281 0.005156482 0.025126355
000160 96 4e 56 3d c0 ab 9b 3c 31 f4 ba bb 1f f8 ca 3c
       0.05232104 0.019002795 -0.0057053794 0.024776516
000170 ab 30 ff 3c e6 a0 94 3b 02 e2 aa 3b d6 8a bb 3a
       0.031151136 0.004535782 0.0052149305 0.0014308344
000180 ad 21 42 3b 56 79 41 3c 02 e9 10 3c f5 aa ad 3b
       0.0029622123 0.011808714 0.008844616 0.0052999207
000190 8a 3b 93 3c b3 cc d5 3c b3 a8 cc 3c bb 55 2b 3d
       0.017972726 0.026098585 0.024982786 0.041829806
0001a0 ad 50 a1 3c be 06 ec 3c 19 da 9a 3c a0 d5 6a bc
       0.01969179 0.028811809 0.018902825 -0.014333159
0001b0 e7 44 10 3d 27 e2 be 3c 01 68 82 3c 4e 35 b3 3b
       0.03522196 0.023301197 0.015918734 0.005469001
0001c0 d8 b6 42 3c d8 0c 48 3d 1a 37 02 3d 61 e0 b6 bc
       0.011884414 0.048840374 0.03179083 -0.02232379
0001d0 d7 9e 91 3c 37 c9 14 3d 05 1c f1 3a 6c d3 19 3d
       0.017775936 0.036324706 0.0018395191 0.037555143
0001e0 ea a0 b6 3c 8e 87 02 3b fe c7 6b 3d 38 c0 e0 3c
       0.022293527 0.0019917223 0.057563774 0.027435407
0001f0 e4 45 d7 3c 38 18 85 3b fd cb 18 3d d7 e4 97 bb
       0.026278444 0.004061725 0.037303913 -0.004635434
000200 6f cc fe 3c 25 48 9f 3a c0 eb 29 3d 9c 09 ef bb
       0.03110334 0.0012152238 0.041484594 -0.0072948467
000210 57 dc b5 3d 60 22 81 3c de 4b 59 3b cc a5 b3 3c
       0.08879917 0.015763462 0.0033156793 0.021929644
000220 56 ab c5 3c 49 6d 59 3c 71 34 f3 3c 5a 51 aa 3c
       0.02412955 0.0132706845 0.029688092 0.020790745
000230 9b 9d 8f 3c 53 dc 4c 3d 89 fc 86 3c 80 64 8e 3c
       0.017531207 0.050014805 0.01647784 0.017381907
000240 d0 b4 ea 3c 72 fb 54 bc d7 68 0a 3c f6 f5 eb 3c
       0.028650671 -0.012999402 0.008447847 0.028803807
000250 d2 69 0f 3d 96 1b a6 3c 53 0b 2f 3b 99 ca 0c 3d
       0.035013027 0.020276826 0.002670963 0.0343729
000260 f9 35 a8 3a b7 4b be 3c 11 8c 27 3d 05 85 ce 3c
       0.0012833468 0.023229463 0.040905062 0.025209913
000270 2f 82 d6 3c e0 bf 12 3d ee da e2 3b b5 62 19 3d
       0.026185123 0.035827518 0.006923071 0.03744765
000280 4f ca 8e 3c 8b aa 49 3d e3 cc 02 3d 13 24 8e 3c
       0.017430453 0.049234908 0.031933676 0.017351186
000290 5c 91 9f 3c 0f 65 81 bb 00 cc c8 39 7e e8 36 3b
       0.019478492 -0.0039488147 0.00038298965 0.0027909572
0002a0 92 42 a0 bb e7 5a 41 ba f4 9e 85 3c 76 33 57 3b
       -0.0048907483 -0.0007375911 0.016311146 0.003283707
0002b0 c3 84 df 3c ae 14 8c 3c 42 9a 39 3d 9d bf 10 3d
       0.027284985 0.017099705 0.045313127 0.035338987
0002c0 49 9e 76 3d e7 59 a9 3c 51 7f aa 3c 3a 08 8b 3c
       0.060209546 0.020672752 0.020812662 0.016971696
0002d0 46 c7 c9 3c e3 6d 64 bb 62 cb 9a 3b 18 6b 90 3c
       0.024631154 -0.0034855537 0.004723952 0.017629191
0002e0 4d c1 77 bb 57 30 1b 3b 68 06 88 3c 05 a5 b4 3c
       -0.0037804425 0.0023679936 0.016604617 0.022051344
0002f0 82 4b 8e 3c be 18 c7 3c a2 cc fe 3c c7 bc d5 3c
       0.01736999 0.02430379 0.031103436 0.026090993
000300 99 54 7a 3c 87 25 c7 3b 94 88 fe 3c 49 26 49 bc
       0.015278959 0.0060774717 0.031070985 -0.012277194
000310 38 ae 47 3d 86 b7 15 3d ef 14 79 3c 2b 9b 04 3d
       0.048750132 0.036551975 0.015202745 0.032374542
000320 02 9a 03 3c a2 c1 2d 3c 4b dd 2e bc e1 08 d3 3c
       0.008032324 0.010605248 -0.010672878 0.02576107
000330 d8 67 f8 3c 5f b2 75 3d f1 07 85 3d ea 23 0a 3d
       0.030322954 0.05998456 0.06495655 0.033725657
000340 3d a4 a8 3c e1 6c 79 bc 5b 14 16 3d ac ca 97 bc
       0.020586127 -0.015223713 0.036640506 -0.018529259
000350 02 a3 2d 3a 92 18 27 3b ae 1d e0 3c 8b 2f ef 3c
       0.00066237163 0.0025496823 0.027357902 0.029197475
000360 ef a2 60 3d c5 e1 14 bc 2c 90 31 bc 2a 38 af bc
       0.054842886 -0.009087031 -0.010837596 -0.021389086
000370 4c ae 80 3c 18 0f c3 3c 86 01 35 3d 1c 8d d2 3c
       0.015708111 0.023810908 0.044190906 0.025702052
000380 2c 0d a7 3c f4 d3 09 bd f3 e8 1a 3d 2f 10 e2 3c
       0.020392023 -0.0336494 0.037819814 0.027595608
000390 02 ab d1 ba b9 f8 45 3d 0c 9e 01 bc b0 bc bf bb
       -0.0015996399 0.048332904 -0.0079112165 -0.0058513507
0003a0 da 5b fd bc e5 da 5a 3c eb 40 b5 bc 04 b1 b1 3b
       -0.030927587 0.013357853 -0.022125682 0.0054227132
0003b0 1a 6f f5 3c b2 76 f1 3c 22 66 29 3d 52 9f 27 3c
       0.029960204 0.029475544 0.041357167 0.010230856
0003c0 8f 5e 30 3c 2f 6f 12 bb c1 6c f1 3c 65 2d 77 3c
       0.010764732 -0.0022344103 0.029470803 0.0150865065
0003d0 6e b8 5c 3c 2a 11 7e bc 07 cf 1e bc c8 34 45 3a
       0.013471706 -0.015507022 -0.009692914 0.00075228186
0003e0 7a 34 06 3d 2b 40 26 3c 91 a7 8a 3c 1d c7 68 3d
       0.03276489 0.010147135 0.016925605 0.056830514
0003f0 03 4e 90 3c 22 b4 ca 3c 67 29 6d 3c 1c b9 81 3d
       0.017615324 0.024744097 0.014475203 0.06334135

network_body.linear_encoder.seq_layers.0.weight f4 [256, 5]
000000 43 21 5a bd 9e 39 05 bd 0b fc b9 bc 04 6c ea 3e
       -0.053254377 -0.03252565 -0.022703191 0.45785534
000010 6a db 91 3e e3 a5 51 be 9e f6 3f bf d8 3c 61 3e
       0.28487712 -0.20473437 -0.7498568 0.21995866
000020 04 3e 39 bf 2f fa 9f 3e 68 51 63 3f a1 27 ea 3e
       -0.72360253 0.31245562 0.8879609 0.4573336
000030 a1 b5 de bd 0a 6d 3b bc 59 2a 73 3f 11 1e 09 bf
       -0.10874487 -0.011439571 0.9498649 -0.535615
000040 7e e4 32 3d ec 68 40 3f ab bc c1 3e e7 77 38 3e
       0.04367494 0.751601 0.37839255 0.18014489
000050 dd 20 32 be b7 16 63 3d 2b 9a 3a 3f c7 68 74 be
       -0.17395349 0.055441584 0.7289149 -0.23868094
000060 de 9f 96 bd e0 fc 14 3e 20 11 25 3f 9b 22 45 3c
       -0.07354711 0.14549589 0.64479256 0.012032176
000070 aa 4f 4f 3d 4d ba ee 3e b2 4f c3 bc 57 1f 93 be
       0.050613083 0.4662651 -0.023841713 -0.28734848
000080 d4 b9 8a bd b2 1d f9 3e c2 c1 90 bd 8f 7b 15 bd
       -0.06773725 0.48655468 -0.07068206 -0.036494788
000090 d7 cd f2 bc 83 d2 61 bf 05 e5 a4 3e af 70 03 bf
       -0.029639168 -0.8821184 0.32205978 -0.51343817
0000a0 1c 56 fb bd df 69 69 3f df 9b 0a bf 19 6a 07 bf
       -0.122722834 0.9117717 -0.5414409 -0.5289627
0000b0 eb b7 85 bf 94 12 4e 3e ff 6d 41 bf b3 13 8f 3d
       -1.0446752 0.20124274 -0.75558466 0.06986179
0000c0 f0 1f 2d 3f 1d 9f 0b 3f 54 23 5b 3e be 7d 95 3e
       0.6762686 0.5453966 0.21400195 0.29197496
0000d0 05 8f 69 3d 89 13 ef be 9e b6 3a 3f 8e cc 29 3e
       0.05702116 -0.46694592 0.729349 0.16581938
0000e0 41 b8 c7 3d 67 43 29 bf 19 27 49 bd 39 37 c0 3e
       0.097519405 -0.6611847 -0.049109552 0.37542132
0000f0 44 f4 ab 3c 70 11 0b bf 6b d1 d3 3e 1a f5 08 3e
       0.020990498 -0.5432348 0.4137071 0.13374749
000100 37 af 9f 3e b0 42 1f 3f 31 5d cb be e7 97 fa 3e
       0.31188366 0.6221113 -0.39719537 0.48944017
000110 a1 ae d7 be 22 dd b3 3d a9 7d 8a 3d b4 fc 00 3f
       -0.4212542 0.08782412 0.06762249 0.50385594
000120 3e 06 e4 3d 95 4c 42 3d 65 8c 49 3e a8 c0 64 bf
       0.11134003 0.047436316 0.19682463 -0.8935647
000130 23 01 0d bf 52 18 f1 be df 62 01 bf c4 79 72 3e
       -0.5507986 -0.47088867 -0.5054149 0.23679262
000140 21 83 22 bf ec 5c 5e 3e 34 e7 44 bd b0 a8 fb be
       -0.63481337 0.21715134 -0.048072055 -0.49152136
000150 59 28 d2 3e fa 84 9e 3d dd 80 43 bf 83 36 03 3e
       0.41046408 0.07740207 -0.76368505 0.12813763
000160 a5 85 83 bc 86 6c 3e 3f 6d d2 02 3f 98 62 e9 be
       -0.016054938 0.74384344 0.51102334 -0.45583034
000170 f5 a0 41 be 50 d8 51 bd 66 f8 8d be cb bc 6f 3d
       -0.18909056 -0.051231682 -0.27728575 0.058529656
000180 92 84 75 3f cb 90 78 be 1a c0 09 3f 35 bc 8b 3e
       0.9590541 -0.24273984 0.5380875 0.27292028
000190 0a f8 de 3c 53 8c 1f 3f aa 20 85 3e 3c f3 02 3f
       0.027217884 0.6232349 0.26001483 0.51152396
0001a0 90 f0 8b be 9f 6a d8 be 08 82 da bd c2 0d 05 3f
       -0.27331972 -0.42268845 -0.10669333 0.5197412
0001b0 ed b3 d8 be 3e 67 12 bf f5 fb 2c 3f 79 de 2e be
       -0.42324772 -0.57188785 0.67571956 -0.17077054
0001c0 e8 eb 69 3e d7 79 3d be 6c 80 64 3e 67 27 ae 3e
       0.22843897 -0.1850351 0.22314614 0.34014437
0001d0 4b e1 0e 3f 45 ed 74 3e 79 07 79 3e 70 b9 a4 bf
       0.5581252 0.23918636 0.24319257 -1.2869091
0001e0 f5 37 a1 be 3c ef 96 3f 8b a8 97 3f 5f 83 50 bf
       -0.31488004 1.1791759 1.184831 -0.81450456
0001f0 e7 c9 ca bd e3 27 e4 be e6 72 4a 3e 03 78 78 3f
       -0.09901791 -0.4456168 0.19770393 0.97058123
000200 9e 39 2b 3f 28 16 a7 be 65 cb a8 be 55 3e a8 be
       0.6688479 -0.3263409 -0.32967678 -0.32860056
000210 0c f8 1a bf aa 1d 0a be 0c 12 c5 3e bf 17 15 3f
       -0.6053474 -0.13487878 0.3849033 0.5823936
000220 c4 f0 78 3f 70 12 ac be 3c 59 10 bf d3 21 d7 bd
       0.9724238 -0.33607817 -0.5638616 -0.10504498
000230 11 a6 0e 3d 88 eb 15 3f 54 88 2e 3e ab 4e 0b 3d
       0.034826342 0.5856252 0.17044193 0.03401057
000240 fc 9d 77 3d 72 b8 df be 47 56 d0 3d 3d ee 66 bd
       0.0604534 -0.43695408 0.10172706 -0.056379545
000250 e2 f5 49 3e 58 d3 5a 3d c4 01 da 3e 2b 39 3c 3f
       0.19722703 0.05342421 0.42579472 0.7352473
000260 9a fa a3 be 74 82 b8 be de 80 d9 3c 49 63 4b 3f
       -0.3202713 -0.36037028 0.026550706 0.7944837
000270 44 6c 07 3f 47 eb 9b 3d 87 8c ef 3d 21 41 ad be
       0.52899575 0.07613235 0.11696725 -0.33838752
000280 a6 42 5f 3e ba af 0f 3f 0b f1 ef 3e 8d 99 64 3e
       0.21802768 0.5612751 0.4686359 0.223242
000290 a6 15 13 3f c6 e0 4e be 7c e5 9c be f1 04 dd be
       0.5745491 -0.20202932 -0.30643833 -0.43167832
0002a0 cb c7 37 3e ef cc 23 bf 60 b9 4e bc 11 a3 b9 3e
       0.17947309 -0.6398458 -0.012617439 0.36257222
0002b0 67 33 10 bd 73 0a 90 3e 88 3a 63 bd e9 c6 0c 3e
       -0.03520527 0.28132972 -0.05547574 0.13747753
0002c0 5e 2a a2 be 92 19 20 3f 26 ce b6 be 03 7b 77 be
       -0.3167295 0.6253902 -0.35704154 -0.24168019
0002d0 65 72 90 be 25 3b 00 bf b0 74 9f be ca 68 8d 3e
       -0.28212276 -0.5009025 -0.31143713 0.2761901
0002e0 7e b5 fc be 84 c5 50 bf 8a 3d 65 3d bc 61 59 3e
       -0.49357218 -0.81551385 0.05596689 0.21228689
0002f0 66 ed 4c be 22 ad 9a be fd 1d 63 bf 20 e2 98 3d
       -0.20012435 -0.30210215 -0.88717633 0.07465005
000300 1f 4c 24 be 64 34 46 3e b1 c8 46 bf 31 79 81 bf
       -0.16044663 0.19355923 -0.7764998 -1.011511
000310 da 66 2c 3e 9a 3e 8e 3e e0 f7 1f 3f fa 36 8f 3e
       0.1683611 0.27782136 0.624876 0.2797163
000320 b0 27 20 3e ce c2 66 bd e2 fa ce bd 47 77 bc be
       0.1564014 -0.056338124 -0.10106446 -0.3680975
000330 11 8d dd bd 71 a5 cc 3b 65 6c 37 3e 1d 26 39 3f
       -0.10817922 0.006245308 0.17912443 0.7232378
000340 02 20 00 3f 92 d2 b9 bc ee 93 dd be 1f e3 25 bf
       0.5004884 -0.022683416 -0.43276924 -0.64799684
000350 ee 7b 06 3d 26 21 57 3f da ca 2f be 36 1a 35 3f
       0.032833032 0.84034956 -0.17167225 0.7074312
000360 ec 46 35 3e 68 90 15 bf 87 86 af 3e a7 5b bf be
       0.17702836 -0.5842347 0.34282324 -0.37374613
000370 8c c4 16 3e aa 10 35 be 51 34 3c 3e 0f ed 40 3e
       0.14723414 -0.17682138 0.18379332 0.1884043
000380 ea 53 08 3f 90 09 21 bf 90 b0 d8 3c ce 3b 81 3e
       0.5325304 -0.62905216 0.026451379 0.2524094
000390 67 dc b9 3e 0e ad 00 3f bf 30 86 be e8 8f aa bf
       0.36300966 0.5026406 -0.26209065 -1.3325167
0003a0 70 d0 5c 3f 6e ab 04 bf 6a e7 b9 3e 28 4d 49 3f
       0.8625555 -0.5182408 0.36309367 0.78633356
0003b0 47 ea 35 bf 15 63 13 bf 64 5d 45 bf 2d 0d 8b 3e
       -0.71060604 -0.5757306 -0.7709563 0.2715849
0003c0 2c e9 e8 be db 46 53 3f af 71 a2 3e c5 55 8a 3e
       -0.45490396 0.8252999 0.3172736 0.27018562
0003d0 6f 3d 50 3e 13 19 41 bd 8a f7 b5 3e 3c 15 bd be
       0.20335935 -0.047143053 0.3554042 -0.36930263
0003e0 2f 07 58 ba 40 00 cf 3d 12 c4 28 bf 5a 41 b3 3d
       -0.00082408165 0.101074696 -0.6592418 0.08752699
0003f0 82 d1 5b be e3 38 e6 bd 4b 94 aa 3e 8c 50 84 3d
       -0.2146664 -0.11241319 0.33316264 0.064606756

network_body.linear_encoder.seq_layers.2.bias f4 [256]
000000 4d 37 a1 3c 8e 22 79 3c 7b 80 d3 3b 3f 0c 20 3c
       0.01967969 0.015205992 0.006454525 0.009768545
000010 8b a6 67 3c a0 c0 95 3b 0e 8c 24 3d e5 11 58 3c
       0.014138828 0.004570082 0.04017263 0.01318786
000020 ad 1a 2f 3d fd a4 7a 3c 5e ac af 3c 6d 34 4f 3c
       0.04275005 0.015298125 0.021444496 0.012646777
000030 b7 02 ca 3b bc eb 0e ba 15 73 2d 3c 2e 6d 81 bc
       0.0061648744 -0.0005451997 0.01058652 -0.015799131
000040 a2 16 80 3c 95 b3 18 3c ad ca 0c 3c 8e c9 01 3d
       0.015635792 0.009320159 0.008593244 0.03168636
000050 73 59 3f 3c 0f cd 2e 3c d0 db b9 3b 2a 5a c7 3b
       0.011679041 0.010669007 0.0056719556 0.0060837464
000060 3a ed 86 bc 0d 0f 22 3c c9 d7 77 ba bf 78 25 3c
       -0.01647054 0.009891284 -0.0009454457 0.010099589
000070 3b 92 20 3c d3 ad f7 bb 55 8b 49 3a 37 80 88 3c
       0.009800489 -0.0075585633 0.00076883036 0.0166627
000080 a8 63 97 3c 97 ed 44 bc b3 a8 14 3c 3c 76 d3 3c
       0.018480137 -0.012019536 0.009073424 0.025813214
000090 10 60 40 3b ba 61 6f bb 78 40 c5 bb 77 e3 bd 3a
       0.0029354133 -0.0036526755 -0.006019648 0.0014487345
0000a0 80 7f e4 3b 04 3d 05 3b 15 09 92 3b 44 fe 2e 3c
       0.006973207 0.0020330558 0.004456649 0.010680739
0000b0 d1 3b 6d 3c bf 80 03 bc f3 f8 9a 3a 7f 8f 31 3c
       0.014479593 -0.008026301 0.001182346 0.010837435
0000c0 d3 5f 29 bb 0f 35 a3 bc 0c a3 0e 3b a4 79 22 3c
       -0.002584447 -0.019922761 0.0021764664 0.009916697
0000d0 40 4c 33 3d 2d 0d 84 ba e9 cf de b9 8c 2e 22 3c
       0.04377389 -0.0010074727 -0.00042498045 0.009898793
0000e0 2e d7 47 ba c0 78 f9 39 54 7e a9 ba 42 6c 4e ba
       -0.0007623312 0.00047582947 -0.0012931325 -0.0007874408
0000f0 80 31 16 3a 83 04 71 3c 82 cb f2 3c f5 cb aa bb
       0.0005729422 0.014710548 0.029638056 -0.005212302
000100 6e eb dc 3c c8 7b ae 3c 56 ee 43 3c f4 e3 5e 3b
       0.02696773 0.021299258 0.011958679 0.0034010382
000110 c9 60 13 3c 06 ee 23 3d e1 95 3c 3d f0 d9 c6 3b
       0.008995243 0.04002192 0.046041373 0.0060684606
000120 90 15 b0 3c 36 e8 bd 3b d3 5a d0 3c 6f ba 10 3d
       0.021494657 0.005795504 0.025433933 0.035334047
000130 c5 d0 07 bc 0a 9e 17 3c ff 6d db 3c 0b 8b 60 bb
       -0.008289521 0.009253988 0.026785849 -0.0034262564
000140 ee a6 a0 3c bc 6c 8d 3c 7f 83 dd 3c f0 d2 9b 3c
       0.019610848 0.017263763 0.027040241 0.019021481
000150 11 6c 94 3b 8a bd 0f 3b ad bb 21 3c ba 7f 69 3b
       0.004529484 0.0021933042 0.009871406 0.003562911
000160 4e 9f 3b 3c cd e1 2d 3b 11 54 6a 3c 13 6d 0f 3c
       0.011451555 0.0026532293 0.01430227 0.008754033
000170 c4 e6 13 3d d1 82 43 3c 1c 21 85 3c 5b 46 23 3b
       0.036108747 0.0119330445 0.01625114 0.0024913761
000180 57 02 46 3c 21 3b 4a 3d b5 99 1b 3d 27 6b 2f 3c
       0.012085519 0.049372796 0.037988383 0.010706699
000190 84 cc 40 3c 79 ec 9a ba ee 19 b9 39 55 cb 43 bc
       0.01176751 -0.0011819742 0.0003530527 -0.011950334
0001a0 dd fa d6 bb bb d2 7e bc 46 56 49 3c 21 dc 7e 3c
       -0.006560667 -0.015553172 0.012288636 0.0155554125
0001b0 f0 38 0e 3c b2 fc 9a 3c 8c ec 15 3d 96 0d 1c 3c
       0.008680567 0.018919323 0.03660254 0.0095247235
0001c0 de 4b 8a bb 15 2e 44 3a df 69 fd ba 66 f5 e0 bb
       -0.00422047 0.00074836734 -0.001933392 -0.0068651913
0001d0 c5 23 e2 3b 0a d1 fb 3b c9 a8 70 ba 04 a2 2d 3c
       0.0069012367 0.0076848315 -0.00091804244 0.01059771
0001e0 c0 20 00 3c fe 58 cb 3c 60 f1 f7 3b ab b9 3e 3c
       0.007820308 0.024822708 0.007566616 0.011640946
0001f0 c6 d0 19 3d 5f 8d cb bb b4 8d 1e 3c c8 d9 da 3c
       0.037552617 -0.006211921 0.009677339 0.026715174
000200 ef 43 9a 3b 9a 27 9d 3c 47 70 2f 3d ef 11 2c 3c
       0.0047078053 0.019183923 0.042831685 0.010502323
000210 b0 94 19 3d 94 a2 11 3d a9 a3 ef 3b 68 ae 7a 3a
       0.037495315 0.035555437 0.007313211 0.0009562732
000220 d1 55 94 3c 0d 86 27 3c 09 b2 1a bc 67 2f 64 3c
       0.018107327 0.010224831 -0.009441861 0.013927317
000230 0d 8b 12 bb 45 1b 92 3c 63 24 3e 3b 08 d8 a1 3c
       -0.0022360713 0.017835269 0.0029013387 0.019756332
000240 11 c0 f6 3c 0c 82 e9 bb 2b 94 fa 3b 24 7f 6d 3c
       0.030120881 -0.0071260985 0.0076470575 0.014495645
000250 9b 8d 44 3d 04 4f 97 3c 1d 4d 79 3c 1b 25 24 3c
       0.047986608 0.018470295 0.015216139 0.010018612
000260 37 af 32 3c ff e1 46 3c ea c7 1d 3c ec 53 1a 3c
       0.010906032 0.012138843 0.009630183 0.009419423
000270 b0 cd b0 ba 27 9c 8a 3c a9 ba a1 3b a2 b1 95 bb
       -0.0013489034 0.016920162 0.0049355817 -0.0045682946
000280 ec ad c4 3c 4e 4a d7 3b e6 61 04 3d 5d 91 0f bb
       0.024008714 0.006570137 0.032319926 -0.0021906712
000290 13 40 60 3c 39 74 d5 3c 73 8b 04 3c f7 4a f5 3b
       0.0136871515 0.026056396 0.008089888 0.007485743
0002a0 6b 41 92 3c 29 b6 83 3c 49 85 b8 3b 55 0b ab 3c
       0.01785346 0.016078072 0.005631123 0.020879427
0002b0 0d e0 00 3c e6 f4 4e 3c 6c cc d4 3c 04 6c 13 bc
       0.007865918 0.0126316305 0.025976382 -0.008997921
0002c0 f0 de 50 3d 04 0f bb bb 7a b1 d1 3c 05 d9 3e 3d
       0.05099386 -0.005708577 0.025597323 0.046593685
0002d0 14 08 51 3a 14 80 57 3c 19 90 18 3b d8 ff 7a 3b
       0.0007973921 0.013153095 0.0023279248 0.0038299467
0002e0 24 d8 bd 3c 3a fc dd 3c 0b bd 87 3a 6c bc 35 3c
       0.023174353 0.02709781 0.0010356022 0.011092287
0002f0 d3 4c b4 bb c0 a9 f2 bb 05 b5 5d 3c 3f 38 92 3b
       -0.005502322 -0.0074054897 0.013531928 0.0044622715
000300 5f 2a 34 3c 10 be aa 3c 16 1f 02 3c 58 13 de 3b
       0.01099643 0.020842582 0.007941982 0.0067772083
000310 4d bf 46 3c d3 ca d5 3b 81 6b 60 3c 76 fb 9a 3c
       0.012130571 0.0065244227 0.013697506 0.018918734
000320 0d 7e 24 3c ff e9 be 3b 2d 80 88 3b 8a 1f 99 3c
       0.0100398185 0.0058262344 0.0041656704 0.018691797
000330 b7 55 8a 3a 2c d7 14 3d 65 51 f5 3c dd 6a 49 3c
       0.001055411 0.036338016 0.029946038 0.012293545
000340 f9 e7 e4 bb e3 ba d7 3c 0c e8 29 b9 46 90 4b 3c
       -0.006985661 0.026334232 -0.0001620354 0.012424534
000350 ba 69 3f bb 71 5a b2 3b 75 27 c2 3c 10 4b b4 bb
       -0.0029207305 0.0054429104 0.023700455 -0.005502112
000360 f9 8c 6f 3b 43 eb 09 3c 21 f8 c8 3c fd d7 d7 3c
       0.0036552532 0.008417907 0.02453238 0.026348108
000370 b8 25 8a 3b 75 ea 72 3c ee 54 cb 3b 48 ae 84 3c
       0.004215922 0.014826407 0.0062051928 0.016196385
000380 26 8c 03 3d c9 2f 80 3c 3e e2 06 3c 79 58 f3 3c
       0.032116078 0.015647786 0.008232651 0.029705273
000390 ef 77 29 3d c7 1e 5f 3c 8a 1e ca 3b f2 b7 37 3c
       0.041374143 0.013618178 0.0061681913 0.01121329
0003a0 67 b7 05 3b 40 11 7f 3c 3d e4 8c 3c f2 60 f1 3b
       0.0020403506 0.015568078 0.017198676 0.007366293
0003b0 66 de 74 3c 2e 23 7a 3c 66 57 12 3c f3 06 f8 3c
       0.014945602 0.015267177 0.00893197 0.030276751
0003c0 cb 84 c0 3c eb 07 b9 3b 3a bd b0 bb 94 e3 95 3c
       0.02350082 0.005646696 -0.0053936513 0.018296994
0003d0 60 24 33 3c 3a c2 1f 3c d6 2a 33 3c b2 56 ea 3b
       0.010933965 0.009750897 0.010935506 0.007151448
0003e0 e7 59 1d bc 60 27 98 3b fd 72 9d b9 62 e5 38 3c
       -0.009603954 0.0046433657 -0.00030031046 0.011285158
0003f0 3b aa 06 3a 91 52 63 3c ca e2 04 3c 8f 13 44 3c
       0.00051370607 0.013874666 0.008110711 0.011967554

network_body.linear_encoder.seq_layers.2.weight f4 [256, 256]
000000 df 03 2f 3d ca ae 66 bd 5e c1 83 bd f3 97 eb ba
       0.0427283 -0.056319036 -0.06433366 -0.0017974362
000010 2e 65 0d 3d e3 38 84 bd 38 7c 38 bd 92 42 0e 3d
       0.03452032 -0.06456163 -0.04504034 0.034731455
000020 a1 d0 0f 3e 95 3e 41 be 1c 5c db bc 2c c7 7e bd
       0.1404443 -0.1887153 -0.02677732 -0.062201664
000030 f5 f0 cc bd 73 4c 13 bd cc 3c bd bd dc 9b 33 bd
       -0.100068964 -0.03596158 -0.09240112 -0.04384981
000040 66 5e 26 3d c2 8c d7 bd 8c 27 ae 3d 0a b0 39 3d
       0.04061737 -0.10524894 0.08503637 0.0453339
000050 dc e2 78 bd 05 18 0b bb 5d da 21 bb a6 63 00 bd
       -0.060763225 -0.0021224034 -0.0024696805 -0.031345032
000060 32 5b 78 bd 7d 28 8f bd ab 79 37 bb 92 a2 15 bd
       -0.060633846 -0.069901444 -0.0027996104 -0.036531992
000070 cb f8 c0 bd fa 3f 81 bd 88 0a 43 bd 12 bb 1b 3e
       -0.094224535 -0.06311031 -0.047617465 0.1520808
000080 bf 52 65 bd cf b4 a3 3d b8 5a 68 3c 9a 76 5d bd
       -0.055987116 0.07993471 0.014181785 -0.054068185
000090 1c 25 0c bd e6 c4 4e bc ad a5 28 bd 5b 0d b2 b9
       -0.034215078 -0.012620186 -0.041173626 -0.00033960756
0000a0 5b 78 7d 3d 55 2a a2 3d d8 c2 d5 bc 88 c9 1a 3e
       0.061882358 0.079182304 -0.026093885 0.1511594
0000b0 25 a5 a6 bd 2b 00 81 3d 6a 6e a2 bd 21 8d 0b 3d
       -0.081369676 0.0629886 -0.07931216 0.034070138
0000c0 a2 95 7b bd 6b 02 71 3c 0f 5e 2f be e3 24 05 bd
       -0.061421998 0.014710049 -0.17125724 -0.03250588
0000d0 47 7d 80 bd 29 da 77 bb d2 ed 8c 3d 22 11 f1 3d
       -0.06273895 -0.0037819243 0.06881298 0.11770846
0000e0 06 cb 8a 3b 11 36 0e bd 24 ea 0c be 17 61 f7 3b
       0.004235628 -0.03471953 -0.13761193 0.007549416
0000f0 8f eb 23 bd d3 40 29 bc c7 59 e7 bd 79 13 85 3d
       -0.040019568 -0.010330397 -0.112964205 0.06497855
000100 37 54 f1 3d b3 38 a1 bd 01 32 88 bd 95 66 5b 3d
       0.11783641 -0.07872143 -0.066501625 0.053564627
000110 03 d9 87 bb 70 4d 7e bd 1d c7 39 bd 97 76 6c bd
       -0.004145743 -0.06208557 -0.045355905 -0.057730284
000120 0e 5b 68 bd 01 dd 8f 3d a8 6d 0f bd 0b 3d df bc
       -0.05672746 0.07024575 -0.035016686 -0.027250787
000130 71 ca ae bb c3 41 28 bc 40 f6 94 bc e2 2e 37 3e
       -0.0053341915 -0.010269585 -0.018183827 0.17888978
000140 18 c1 17 bd bb ef 7a 3d 23 65 12 3d 32 e5 a7 bd
       -0.037049383 0.06126378 0.035740983 -0.081980124
000150 e0 b4 03 bd d2 6d 74 bc 18 22 a2 bd f9 a4 0e bd
       -0.032154918 -0.014918761 -0.07916659 -0.0348253
000160 bd 69 7d bd 6a 9c c9 bd 48 1c 3c 3e 11 32 05 bc
       -0.061868418 -0.09844287 0.18370163 -0.008129613
000170 f2 62 84 bd d7 a0 4e bc 48 ea 34 3d 30 ab ef 3c
       -0.06464185 -0.012611589 0.04416874 0.029256433
000180 52 4e 9c 3c f6 73 8f bd 5f 54 13 3c ef 72 1d 3c
       0.019080315 -0.0700454 0.008992284 0.009609922
000190 e1 7d 8a bd 9a aa 8b bd d7 8a c0 bd 04 45 c8 3c
       -0.06762291 -0.06819649 -0.094014816 0.024446972
0001a0 3b 6c 0b bd 2d 8f be 3d 37 31 d1 bc c0 36 28 bd
       -0.034038763 0.09304652 -0.025536163 -0.04106784
0001b0 8e 74 68 bc 91 43 24 3c df de 0a be 91 6b 8c bb
       -0.014187945 0.010025875 -0.13561581 -0.004285284
0001c0 d7 d5 03 3c eb b0 16 3e 8a 9b 2c be 21 83 16 3e
       0.008046589 0.14715926 -0.16856208 0.14698459
0001d0 c5 8f db 3d e7 df 2c 3e 36 4e b0 bd 38 f8 07 3c
       0.10720781 0.16882287 -0.086086676 0.008298926
0001e0 4e 95 49 bc 57 bc 0b 3d 3e 13 40 be 50 33 8b bd
       -0.012303663 0.03411516 -0.1875734 -0.067968965
0001f0 4f b2 b5 bc a8 08 f4 3c a5 8f cc 3d 2c bd 03 be
       -0.02217975 0.029789284 0.099883355 -0.12865132
000200 05 fa 45 bd 1f e2 30 3d 0a 65 23 3c 77 bb eb bd
       -0.04833414 0.043184396 0.00997282 -0.115103655
000210 0f a8 08 3e 97 78 9f bd dc 62 53 3d 82 8d e2 bd
       0.1334536 -0.077866726 0.05160795 -0.11062147
000220 6b 52 63 3d 97 e1 9c bc cd a7 6e 3d 8f 4c 85 3d
       0.05549852 -0.019150538 0.058265496 0.06508743
000230 f5 64 ed 3b 5c 1e b4 3d 31 85 39 bd f1 1b ff bb
       0.007244701 0.08794853 -0.045293037 -0.0077853133
000240 2e 2f b1 3d 3c 73 e8 bc 82 59 5a 3d b8 64 48 3a
       0.08651577 -0.02837526 0.053308018 0.0007644403
000250 e9 bc c9 bd 2b a2 79 b9 66 7c d8 3d e8 cf 09 3d
       -0.09850485 -0.00023806903 0.10570602 0.03364554
000260 7d b3 9f 3d 62 7d b9 bd 8d a7 18 be a2 90 1a 3e
       0.077979065 -0.09057118 -0.14907666 0.15094236
000270 51 dd 4b 3d b1 12 bd 3d a9 50 51 be 7b f5 2b bd
       0.04977161 0.09232081 -0.20440926 -0.041982155
000280 5a 07 99 bd d0 0d 87 bc bf 1d 50 3d 1c 93 07 bd
       -0.07472105 -0.016486079 0.050809618 -0.03309928
000290 13 6b 68 3d 4d b2 c2 bb f8 ab 68 3d 1e f0 87 3c
       0.05674274 -0.0059416653 0.056804627 0.016593989
0002a0 04 70 df bd 41 ae 3b 3d a0 04 2d be 04 84 a4 3d
       -0.10910037 0.04582048 -0.16896296 0.080329925
0002b0 a6 07 ad 3d 1b 22 08 3c 89 6e 59 3d 21 cf d7 3b
       0.084487244 0.008308913 0.05308393 0.006585971
0002c0 c7 35 03 bd 98 ea 8f bd e0 26 72 bd 64 3d 08 bd
       -0.032033708 -0.07027167 -0.059119105 -0.03326167
0002d0 04 0e 3c bd a1 bc 11 be 94 6c 3f 3e 5e 53 3e 3d
       -0.045911804 -0.14232112 0.18693763 0.046466224
0002e0 76 67 ca 3d 9b ee 90 3d 16 52 ca 3c e1 67 8f bc
       0.09883015 0.070767604 0.024697345 -0.017505588
0002f0 76 8d 96 3c 0c 85 24 bd dd 49 4f 3d 11 7f b7 bd
       0.018378 -0.040165946 0.05060755 -0.08959783
000300 64 68 ea bc b7 25 2a 3b a8 b5 b0 3c 7d a0 c3 bd
       -0.02861423 0.0025962421 0.021570995 -0.09552095
000310 04 db a9 bd 8f 52 48 3d ee 19 08 be 3a 0d 28 bc
       -0.08293727 0.04890686 -0.13291141 -0.01025706
000320 88 34 b4 bc bf a5 3c bc ce 5b 81 3d 50 3c 0f be
       -0.021997705 -0.011514126 0.063163385 -0.13987851
000330 c3 c2 0a bb 33 69 cb 3d 8d 69 6b bc 00 b1 1d be
       -0.0021173216 0.099321745 -0.014368427 -0.15399551
000340 6a fe 38 bc b7 75 57 3d 47 d1 aa 3d eb 84 85 3d
       -0.011291126 0.052602496 0.08340698 0.06519493
000350 c3 67 be 3b 17 2c 80 bd ff 2e 10 be 81 f8 6f 3d
       0.005810709 -0.062584095 -0.14080428 0.0585866
000360 98 97 e1 3d ac 2a 4d 3d 2c 70 a1 bc b1 b8 f9 3b
       0.11015242 0.050089523 -0.019706808 0.007620894
000370 e8 58 62 3d de 6c 95 bd 9d 19 56 3e 68 f1 24 3c
       0.05526057 -0.072961554 0.20908208 0.010067321
000380 5a 55 91 3d fc 0c 01 be 56 18 9d 3d 47 dd cf bd
       0.07096358 -0.1260261 0.07670657 -0.10149627
000390 c6 bb f3 3c 70 f3 b6 3d 70 96 8d bd d9 91 c3 bc
       0.029752623 0.08933151 -0.06913459 -0.023873257
0003a0 bb b8 95 bd 83 56 ef bb 97 54 f0 bc 37 db 57 bd
       -0.07310625 -0.007304014 -0.02933721 -0.052699294
0003b0 97 48 56 bd c9 65 a7 3c e0 18 fc 3d 87 c4 57 3d
       -0.05231532 0.020434277 0.12309432 0.052677657
0003c0 d3 94 ae bd 2e 6b 99 bc 63 e4 10 be d0 77 7b bb
       -0.0852448 -0.018727865 -0.14149623 -0.0038370974
0003d0 20 87 80 bd fb 36 e6 bd 14 d7 3c 3d 76 83 0f bd
       -0.06275773 -0.112409554 0.046103552 -0.03503748
0003e0 db b8 9c 3c b8 c1 21 bc 52 ad d6 bd a6 5a f7 3c
       0.019131115 -0.009872846 -0.10482277 0.030194592
0003f0 d4 02 39 3d ce 80 62 bd 2b dc 4b 3c da b7 cc 3c
       0.045168713 -0.05529862 0.012442629 0.024990011
